…
   "cell_type": "code",
   "execution_count": 9,
   "metadata": {
    "colab": {
     "base_uri": "https://localhost:8080/",
     "height": 835
    },
    "colab_type": "code",
    "id": "Pp8sjcNMVb1-",
    "outputId": "d0d3356a-041e-4b7a-e138-584c6cd4f6bb"
   },
   "outputs": [
    {
     "name": "stdout",
     "output_type": "stream",
     "text": [
      "_________________________________________________________________\n",
      "Layer (type)                 Output Shape              Param #   \n",
      "=================================================================\n",
      "input_1 (InputLayer)         (None, 150, 150, 3)       0         \n",
      "_________________________________________________________________\n",
      "block1_conv1 (Conv2D)        (None, 150, 150, 64)      1792      \n",
      "_________________________________________________________________\n",
      "block1_conv2 (Conv2D)        (None, 150, 150, 64)      36928     \n",
      "_________________________________________________________________\n",
      "block1_pool (MaxPooling2D)   (None, 75, 75, 64)        0         \n",
      "_________________________________________________________________\n",
      "block2_conv1 (Conv2D)        (None, 75, 75, 128)       73856     \n",
      "_________________________________________________________________\n",
      "block2_conv2 (Conv2D)        (None, 75, 75, 128)       147584    \n",
      "_________________________________________________________________\n",
      "block2_pool (MaxPooling2D)   (None, 37, 37, 128)       0         \n",
      "_________________________________________________________________\n",
      "block3_conv1 (Conv2D)        (None, 37, 37, 256)       295168    \n",
      "_________________________________________________________________\n",
      "block3_conv2 (Conv2D)        (None, 37, 37, 256)       590080    \n",
      "_________________________________________________________________\n",
      "block3_conv3 (Conv2D)        (None, 37, 37, 256)       590080    \n",
      "_________________________________________________________________\n",
      "block3_pool (MaxPooling2D)   (None, 18, 18, 256)       0         \n",
      "_________________________________________________________________\n",
      "block4_conv1 (Conv2D)        (None, 18, 18, 512)       1180160   \n",
      "_________________________________________________________________\n",
      "block4_conv2 (Conv2D)        (None, 18, 18, 512)       2359808   \n",
      "_________________________________________________________________\n",
      "block4_conv3 (Conv2D)        (None, 18, 18, 512)       2359808   \n",
      "_________________________________________________________________\n",
      "block4_pool (MaxPooling2D)   (None, 9, 9, 512)         0         \n",
      "_________________________________________________________________\n",
      "block5_conv1 (Conv2D)        (None, 9, 9, 512)         2359808   \n",
      "_________________________________________________________________\n",
      "block5_conv2 (Conv2D)        (None, 9, 9, 512)         2359808   \n",
      "_________________________________________________________________\n",
      "block5_conv3 (Conv2D)        (None, 9, 9, 512)         2359808   \n",
      "_________________________________________________________________\n",
      "block5_pool (MaxPooling2D)   (None, 4, 4, 512)         0         \n",
      "=================================================================\n",
      "Total params: 14,714,688\n",
      "Trainable params: 14,714,688\n",
      "Non-trainable params: 0\n",
      "_________________________________________________________________\n"
     ]
    }
   ],
   "source": [
    "conv_base.summary()"
   ]
  },
  {
   "cell_type": "markdown",
   "metadata": {
    "colab_type": "text",
…
